data.pth (torch, 11775 bytes, 6 tensors)

l1.weight f4 [8, 194]
000000 8b 96 d6 3e 16 63 18 bd e6 31 b3 3d 36 f9 87 3e
       0.4191173 -0.03720387 0.08749752 0.2655732
000010 9c 02 05 3f fe 19 71 bd c0 b5 84 3e ba 3f 23 bf
       0.51957107 -0.05886268 0.25919914 -0.63769114
000020 89 4d f9 3e 72 24 e5 3d f6 b5 f3 3e 16 ec a2 3c
       0.48691967 0.11188592 0.47599763 0.019887965
000030 e2 e4 c9 bd 0d ed 55 bc c0 aa d8 3c 9d 6f 3d bf
       -0.09858109 -0.013057006 0.026448607 -0.73998433
000040 83 24 bc 3e c0 1e 30 3f bb 84 ec 3e 8c 89 f5 3e
       0.36746606 0.6879692 0.46195015 0.47956502
000050 b1 0f db 3e 86 c8 bd 3e f8 de 14 bf a8 a2 1f 3d
       0.4278541 0.3706705 -0.58152723 0.03897348
000060 a4 27 db be a2 c4 2a 3e 8b 04 9e bd 4a b2 be 3c
       -0.4280368 0.16676572 -0.0771571 0.023278374
000070 2f 92 5a bf 5c bb ae bc f2 e6 6a be 5b f4 eb be
       -0.8537931 -0.021329574 -0.22939661 -0.46084866
000080 9a 03 54 3d 2d 93 47 3f 88 68 82 3c 87 3d 26 3e
       0.051761247 0.7795895 0.015918985 0.16234408
000090 d1 74 5d be 08 0b 10 3f 2c 54 1d 3d 9b 36 97 be
       -0.21626593 0.5626683 0.03841035 -0.29533848
0000a0 a0 e7 25 be dd b9 f7 3e 2b bd 46 3d 90 00 8e 3e
       -0.16201639 0.4838399 0.04852025 0.27734804
0000b0 30 85 d5 3e ed 1c 50 3e e5 54 2a be 22 df 94 be
       0.41703176 0.20323534 -0.16633947 -0.29076487
0000c0 ac db e7 3d 05 28 f0 bb 8e b5 99 be 6f a2 19 bf
       0.11321196 -0.0073289894 -0.30021328 -0.6001348
0000d0 ad a4 ae bc 33 9d 12 bf c1 f4 0a be c5 d7 ec be
       -0.021318758 -0.57271117 -0.13569929 -0.4625837
0000e0 9a 3b bf 3e 68 89 09 be b5 96 2b 3f de 9e 55 be
       0.3735016 -0.13431323 0.67026836 -0.20861384
0000f0 2e d9 69 3d d1 a9 6e be f7 0a 0e bf 5b 64 3a 3e
       0.057091884 -0.23306967 -0.5548548 0.18202345
000100 48 59 ec be 81 9b 09 3e 39 ba f4 3e 80 7b f9 be
       -0.46161866 0.13438226 0.47798327 -0.48727036
000110 97 ca 0f be cb d9 e3 3d 97 5a a6 3d ad 7a 43 be
       -0.14042126 0.11125525 0.081227474 -0.19089766
000120 06 54 04 be 93 02 0b 3f 01 82 f0 be b8 98 87 be
       -0.12922677 0.543008 -0.46974185 -0.26483703
000130 af a0 4c be 5a 9f 28 bd 27 29 34 3f 68 49 e5 3e
       -0.19983171 -0.041167594 0.70375293 0.44782567
000140 25 88 2a 3f 9b ff 2d 3f bb 52 3a 3e de 6f ef 3d
       0.6661399 0.6796815 0.18195622 0.11691259
000150 83 7d b9 3d e6 a1 6c bd 77 50 38 be 6a 18 17 be
       0.090571426 -0.057771586 -0.17999445 -0.14755407
000160 48 82 3e 3f 02 0a 87 3f 1e 63 9a 3e ae 3b 87 3e
       0.74417543 1.0549929 0.30153745 0.2641272
000170 77 93 f8 be 18 ec 9e bd e9 26 e0 3e df bf 88 be
       -0.48550007 -0.07759875 0.43779686 -0.26708886
000180 48 0a e1 3d e2 4f 39 3d 99 fd c0 3e b3 a2 b8 be
       0.10988289 0.045242198 0.3769348 -0.3606163
000190 1c 9d ad 3e b7 bd 0a 3e f7 21 ae 3e 35 c7 5e 3e
       0.33908927 0.13548933 0.34010288 0.21755679
0001a0 2b 1d b3 be 80 de 5e 3e fc 6c 65 be 5b 1d c8 bc
       -0.3498319 0.21764565 -0.22404855 -0.02442806
0001b0 4e e7 c0 be bd 5f 56 3d 29 7e fb bd 50 81 9e 3d
       -0.3767647 0.052337397 -0.122799225 0.07739508
0001c0 72 21 9e 3e a4 b1 a4 bd 33 29 be be eb a0 30 3e
       0.30884892 -0.08041695 -0.37140808 0.17248885
0001d0 18 82 12 3f 6c c5 da be 35 52 c5 be 84 40 c8 be
       0.5722976 -0.42728746 -0.3853928 -0.39111722
0001e0 0e c7 64 3d 46 47 af 3e d0 89 16 3d 66 24 81 be
       0.055853896 0.34234065 0.036752522 -0.25223082
0001f0 f7 d6 9e be 62 56 84 be 23 a5 b6 3e ac 23 a1 be
       -0.3102338 -0.25847155 0.35672864 -0.31472528
000200 3c 37 e8 3d d9 38 cc bc 8e 14 0e be 11 b1 3b be
       0.1133866 -0.02492945 -0.13875028 -0.18329264
000210 f3 ed e0 be 56 20 ed be 59 3c 78 3f 79 e6 aa 3e
       -0.4393154 -0.46313733 0.96967083 0.33378962
000220 3d e0 35 bf 73 49 b3 be 8b 6e 34 bf 7b 49 65 3e
       -0.71045285 -0.35016975 -0.70481175 0.22391312
000230 02 09 8a be ee 7a 5e 3e 7b 23 46 bf b1 d7 17 bf
       -0.26959997 0.21726581 -0.7739789 -0.59313494
000240 b7 83 cc 3e e2 71 a2 3e 76 97 a2 3e 56 9b c3 3d
       0.3994424 0.3172751 0.3175618 0.09551112
000250 1d a5 de bd f1 9f c0 3e e6 b6 b9 bd a3 40 cb be
       -0.108713366 0.37622026 -0.09068088 -0.3969775
000260 8f 21 0e 3e 09 06 33 3e 1d 88 19 be 71 a9 bb be
       0.13879989 0.17482771 -0.1499333 -0.3665271
000270 bd b2 c6 be e3 5d e7 3c c0 84 83 3e a4 e0 a7 3e
       -0.3880824 0.02824301 0.25687218 0.32788575
000280 f3 20 8b be fa 20 26 3f f6 d3 61 be 69 d4 04 bf
       -0.27173576 0.6489407 -0.22053513 -0.5188661
000290 86 b3 45 bc e7 46 e3 3e 9d 62 6e 3e 1a a8 37 3f
       -0.0120667275 0.44390032 0.23279805 0.7174088
0002a0 2e 6c cb 3e a9 37 2e 3d 77 53 e0 3d ac f5 35 3e
       0.39730972 0.04253355 0.1095342 0.17769498
0002b0 1c 57 e9 3e 7b e1 02 bd ee 18 d8 be 35 fe 83 be
       0.45574272 -0.031953316 -0.4220652 -0.25779882
0002c0 a1 59 82 3e b6 32 0e 3e 32 44 f4 3d 22 25 47 bd
       0.25459006 0.13886532 0.1192707 -0.048619397
0002d0 1c e2 6f 3e 1f 1a 2f be d3 8d 12 3e 8f 01 b5 be
       0.23426098 -0.17099808 0.14311914 -0.35352752
0002e0 0e ab fa 3e a8 d2 d0 bd ab 3b 29 3e 67 5e 18 3c
       0.4895863 -0.101964295 0.16526668 0.009299851
0002f0 62 7c 74 3d ac 12 1c bf d8 f0 0c bf a5 a1 dc 3c
       0.059688933 -0.6096599 -0.55055 0.026932547
000300 81 6f a0 be 42 ea 01 3f 39 e7 9f 3e c1 cf d9 3d
       -0.3133507 0.50748074 0.31231096 0.10635329
000310 19 e8 41 3e 3b 74 ea 3c 6a 61 83 3e c4 28 9c bd
       0.18936194 0.028619876 0.2566026 -0.07624963
000320 3f 88 1d 3d 70 16 b2 3e b3 e1 f7 3e 3f 09 0e 3f
       0.038460013 0.34782743 0.48414382 0.5548286
000330 6d 0e 5b be 63 f1 8d 3e 22 7a 49 3f df 1b 89 3e
       -0.21392222 0.27723226 0.78701985 0.26779076
000340 c6 14 66 3e 53 c5 98 3e a5 24 b0 3e 65 da 20 3e
       0.22468862 0.29838046 0.34402958 0.15708311
000350 b5 67 3c 3f 5c 34 9c 3b be a8 a8 3e a7 e4 11 3e
       0.73595744 0.004766984 0.3294124 0.1424738
000360 05 d5 bc 3e 6c 33 32 be 58 bd 01 3e 3a 3b c8 3e
       0.3688127 -0.17402428 0.12669885 0.39107686
000370 7e 9a bd 3e 12 ce 63 be 90 f0 6c be 76 8b 5a bd
       0.3703193 -0.22246578 -0.23138642 -0.053355657
000380 77 1c 0e 3e af f5 87 3f e4 7b ed 3e ed d4 5b bd
       0.13878046 1.0621852 0.46383584 -0.05366986
000390 f8 89 f5 bd f7 1e 51 3d f3 d9 32 3e ae 00 67 be
       -0.11989206 0.05105492 0.17465954 -0.22558853
0003a0 fd d8 1c 3e 7e 92 9d 3e bc 75 52 3e f7 ce 7a be
       0.1531715 0.30775827 0.20552725 -0.24493013
0003b0 3b 19 24 be 32 2c 70 be d2 eb 4d 3e 23 d7 50 3e
       -0.1602525 -0.23454359 0.2010949 0.20394568
0003c0 bd 42 2c 3e f3 f1 d7 3e 0f 56 2a be 80 91 9a be
       0.16822334 0.4217678 -0.16634391 -0.30189133
0003d0 78 9b 8d 3e 03 3b bf bc 54 23 80 3e 28 c4 6f 3e
       0.27657676 -0.023343569 0.25026953 0.23414671
0003e0 26 b5 31 be 15 72 bb 3e ef d9 5f bd 1b f7 13 3e
       -0.17354259 0.36610475 -0.054651197 0.14449732
0003f0 77 1c 0c be f9 bb 07 be 98 f3 14 3e 73 6d c2 3d
       -0.13682733 -0.132553 0.14546049 0.09493532

l1.bias f4 [8]
000000 92 6c 50 3f b6 5c 45 3f a1 61 53 3f dd 80 4c 3f
       0.81415665 0.7709459 0.82570845 0.7988413
000010 d0 8d 3d 3f f0 5b 5b 3f 09 08 87 3e fb 62 11 3f
       0.74044514 0.8568716 0.26373318 0.5679166

l2.weight f4 [8, 8]
000000 00 3a a3 3e dd 72 0c 3f ee 99 e3 bd 50 36 d9 3f
       0.31880188 0.5486277 -0.11113344 1.69697
000010 1b 9b 62 3f fa 67 f0 3e 08 a8 25 bd 9b 19 83 bf
       0.8851792 0.46954328 -0.04044345 -1.0242189
000020 07 ce 5a 3f ca c4 82 3f 1d 46 f5 be 51 61 ef 3e
       0.8547062 1.0216305 -0.47905055 0.46753934
000030 68 e4 ec be 4f d6 83 bf 65 f8 94 3f 3f 82 83 3f
       -0.4626801 -1.0299777 1.1638304 1.0274123
000040 d2 ce 2c bd b3 63 94 3e 8f 4b 73 bf 17 6d 8e be
       -0.042189427 0.28982314 -0.9503717 -0.27817604
000050 4f 7c c4 3f 3f e6 88 3e 42 cb 85 bf cf 3d 89 3f
       1.5350436 0.26738164 -1.0452654 1.0721987
000060 6a fa 8f be f4 3b 17 be fe 0e d9 bd f0 4d 59 bd
       -0.28120738 -0.14768964 -0.10598563 -0.053052843
000070 8e bf 63 3e 10 95 7f be f5 2e 4a be f8 96 55 bd
       0.22241041 -0.24959207 -0.19744475 -0.05214593
000080 38 cd af bf b5 4c 3f 3e ca 4b 0c 3f ec 2a 39 3f
       -1.3734503 0.18681605 0.54803145 0.7233112
000090 51 f3 b6 3e 28 0b 8e 3f 45 43 1d 3f 59 42 e1 3e
       0.3573251 1.1097155 0.6143077 0.43995932
0000a0 bb 11 8c 3f 07 3d ba be 04 8f f5 3f 20 3e 9a 3d
       1.0942911 -0.36374685 1.918427 0.07531381
0000b0 ec 9b dd bc 85 fd da 3f 1f 29 22 be e7 3d ba be
       -0.027051888 1.7108618 -0.15835999 -0.36375353
0000c0 17 6d 9e bf e9 99 2b 3f b5 18 21 bf 48 c7 9b 3f
       -1.2377042 0.67031723 -0.62928325 1.2170191
0000d0 01 3f 9d 3f 5a d4 b1 3c 37 fa 50 bf 69 2a 83 3d
       1.2284852 0.021707702 -0.816318 0.064045735
0000e0 96 9c 0a bf 79 ea 5a 3e 1b 07 91 3f 46 64 a4 bf
       -0.5414518 0.21378507 1.1330293 -1.2843101
0000f0 7c 84 5a 3d 9f 25 85 3e c4 0a f4 bd 81 c2 a1 3f
       0.053349003 0.26005265 -0.11916116 1.2637483

l2.bias f4 [8]
000000 4c d2 cc 3e f3 04 a6 3e 39 c5 36 3f a3 56 25 be
       0.40004194 0.3242565 0.7139469 -0.1614633
000010 bf 90 3a bf 6e fd 3c 3f c8 fd a8 3e 2b f6 14 3f
       -0.72877115 0.73824203 0.3300612 0.5818812

l3.weight f4 [11, 8]
000000 af 6c f8 3e ff 8e bc bd f9 45 a2 bf 00 e6 00 bc
       0.4852042 -0.09206962 -1.2677604 -0.007867336
000010 58 bd c6 3e 0d 6e aa bf 9f ce 02 3f 87 22 39 bf
       0.38816333 -1.3314835 0.5109653 -0.7231831
000020 38 ae ca bd 5d 9b 9e bf c2 8f 24 be cc c5 a3 be
       -0.09896511 -1.2391163 -0.16070464 -0.31986845
000030 01 8a 11 3f e7 75 9a be d9 79 27 3f 5d 98 06 be
       0.568512 -0.30168077 0.654203 -0.1314406
000040 2d b5 b5 bf 78 38 09 3f 03 7f 72 3d 40 1c 6a 3d
       -1.4195915 0.5360179 0.05920316 0.057155848
000050 35 53 11 bf b6 bf c1 bf 8e 83 4b bf 5c 71 af 3e
       -0.5676759 -1.513663 -0.7949761 0.34266174
000060 82 84 2f bd 61 4c 43 3f 72 72 97 bf 7b bc 88 3e
       -0.04285098 0.7628842 -1.1831801 0.267063
000070 4b fe 69 bf ae d7 e3 bf 51 e4 5c bf da 56 92 bf
       -0.91403645 -1.7800195 -0.86285883 -1.1432755
000080 6e 1e c4 bf 86 04 c9 be 50 bc 06 3f 12 93 ac be
       -1.5321786 -0.39261264 0.5263109 -0.33705956
000090 91 1a 38 3e e5 7a 82 bf b4 1b cd 3e ea 0d 19 3f
       0.17978884 -1.0193754 0.40060198 0.59786856
0000a0 56 cb a1 3e 51 37 73 bc 73 36 1c 3f 6f a6 83 3e
       0.31600446 -0.014844731 0.6102058 0.25712916
0000b0 21 15 f7 bf ea 4c e3 bd 14 99 43 bf 66 2c 5d be
       -1.9303323 -0.110986546 -0.76405454 -0.21598968
0000c0 5c 95 b8 bf 8a 60 94 bf 61 5d d3 be c1 65 3e be
       -1.4420581 -1.1591961 -0.4128218 -0.18593504
0000d0 81 45 59 3f b3 5c 4c be 70 9a 6a bf 93 6e 3d 3f
       0.8487168 -0.19957237 -0.916419 0.7399685
0000e0 38 e9 17 bf 44 1c 0a bd ab 06 be bf 7a 6b 90 be
       -0.5934024 -0.033718362 -1.4845785 -0.28206998
0000f0 57 93 d0 bc e6 8c 6a bd e5 a5 25 bf e2 07 ab 3e
       -0.025460882 -0.057263277 -0.6470626 0.33404452
000100 d3 9a de 3e 17 b6 8b be 12 44 3d 3f f4 7c d7 3d
       0.43477497 -0.2728736 0.7393199 0.1052188
000110 9a 8a 81 bf 0c 8f c9 bf b1 5a 70 3f 32 2a 72 bd
       -1.0120423 -1.574678 0.93888384 -0.05912227
000120 2e 11 1f 3f b7 4b ee bf f2 78 2a bf 1a 00 09 3e
       0.6213559 -1.8616856 -0.665908 0.13378945
000130 2c 54 e5 be d4 fd 3e 3f 8e eb 6f bf 33 7d 19 bf
       -0.4479078 0.7460606 -0.937188 -0.59956664
000140 94 31 f3 bf 15 dc 30 bf 72 a8 b3 bf a7 e1 90 3e
       -1.8999505 -0.6908582 -1.403578 0.2829716
000150 90 9a f5 bf f2 c0 76 3f ee 78 4d bf 21 cf 7a 3f
       -1.9187794 0.9638816 -0.8026265 0.97972304

l3.bias f4 [11]
000000 08 f5 8d be 2c 65 de be 20 5b 88 3b 4b 98 36 3e
       -0.27726007 -0.43436563 0.0041612536 0.17831533
000010 73 a3 29 bf 24 a6 fa 3e 20 af df bd 5c 95 9a be
       -0.6626503 0.4895488 -0.10922074 -0.30192077
000020 40 07 1c 3e e1 c9 af 3e 37 0f b7 3e
       0.1523714 0.3433371 0.35753796
